DL2020_assignment4/just_a_specific_fashion_mnist_model.pth (torch_old, 312684 bytes, 16 tensors)

conv1.weight f4 [6, 1, 3, 3]
0	0xbe1276eb	-0.14303176
1	0x3f303fc3	0.6884729
2	0xbdf19575	-0.11796085
3	0xbf1abb04	-0.60441613
4	0xbd9388d8	-0.07203835
5	0x3ed9127b	0.42396912
6	0xbf91788c	-1.1364913
7	0xbf3b907a	-0.7326733
8	0x3e9bbf04	0.3041917
9	0x3f273f1f	0.6533069
10	0xbeb77e18	-0.3583839
11	0xbea91c4c	-0.330294
12	0xbf6ab653	-0.91684455
13	0xbf6d02d4	-0.9258244
14	0x3f2de930	0.6793394
15	0xbf1d2d18	-0.6139693
16	0x3f5ed18c	0.87038493
17	0xbee16780	-0.44024277
18	0xbf624d39	-0.8839908
19	0x3e504115	0.20337327
20	0xbf04db4f	-0.5189714
21	0x3f1fe940	0.62465286
22	0x3f2dc68b	0.6788108
23	0xbf22ee83	-0.6364519
24	0x3f64f117	0.89430374
25	0xbf3c216a	-0.73488486
26	0x3e16c116	0.14722094
27	0xbdd19d6a	-0.102351025
28	0xbee37ea8	-0.4443257
29	0xbe29836c	-0.1655404
30	0xbf30a404	-0.6900027
31	0xbf72afd0	-0.9479952
32	0xbea96d51	-0.33091214
33	0x3ed7efca	0.42175132
34	0xbe0085ac	-0.12550992
35	0xbcfce23d	-0.030869598
36	0x3ec21bd4	0.37911856
37	0xbf6011f3	-0.8752739
38	0x3f62910e	0.88502586
39	0x3fb95b1f	1.4480933
40	0xbf6f17f6	-0.93395936
41	0xbeb7a7da	-0.35870248
42	0xbeef60fb	-0.46753678
43	0x3f8ca86c	1.0988898
44	0xbf0e31d5	-0.5554479
45	0xbcb3dd84	-0.021956213
46	0x3e0bbd0f	0.13646339
47	0xbeda3e3e	-0.42625612
48	0x3edfd159	0.43714407
49	0x3eedac3d	0.4642047
50	0xbf8e3d2f	-1.1112422
51	0x3ea53776	0.32268876
52	0x3f59a2ef	0.8501424
53	0xbf8c1c8d	-1.0946213

conv1.bias f4 [6]
0	0xbe9cbb36	-0.3061158
1	0xbe1799f7	-0.14804827
2	0xbd06951e	-0.032857053
3	0xbdadebb1	-0.0849222
4	0xbe738530	-0.23781276
5	0x3ea199fa	0.31562787

bn1.weight f4 [6]
0	0x3fb11048	1.3833094
1	0x3f91d9ac	1.1394553
2	0x3f3aa4bc	0.72907615
3	0x40093e17	2.1444147
4	0x3f1da87d	0.6158522
5	0x3f3c2b54	0.73503613

bn1.bias f4 [6]
0	0xbf37f90f	-0.7186441
1	0xbe9876b7	-0.29778072
2	0xbe43110d	-0.19049473
3	0xbf8d0326	-1.1016586
4	0x3da1383e	0.078720555
5	0x3e97f674	0.29680216

bn1.running_mean f4 [6]
0	0x3e6cd6cf	0.23128818
1	0x3ec5312e	0.38514084
2	0x3cb20232	0.021729562
3	0x3f6b0a1c	0.918123
4	0xbedb2882	-0.42804343
5	0x3ed2b5ad	0.41154233

bn1.running_var f4 [6]
0	0x3fb7a733	1.43479
1	0x3f572d57	0.8405356
2	0x3ee065f8	0.43827796
3	0x401db205	2.4639904
4	0x3ef00312	0.46877342
5	0x3f91f1db	1.1401933

conv2.weight f4 [12, 6, 3, 3]
0	0xbee729f2	-0.4514919
1	0x3f5b74b6	0.8572496
2	0xbecc238b	-0.39870867
3	0xbefd22c4	-0.49440587
4	0x3d4f1dd5	0.05056556
5	0x3ea40bc8	0.32040238
6	0x3da1a10c	0.078920454
7	0xbf3d6d2c	-0.7399471
8	0x3e379929	0.1792952
9	0x3c856b9b	0.016286662
10	0x3e3ec01f	0.18627976
11	0xbcc398a9	-0.023876505
12	0xbe6791e9	-0.22614254
13	0x3e99bdb0	0.30027533
14	0x3de00afe	0.109395966
15	0xbc92d1e6	-0.017922353
16	0xbe0124cb	-0.12611692
17	0x3db91c54	0.09038606
18	0x3eaa364c	0.3324455
19	0xbe93203a	-0.28735524
20	0xbcb3b23a	-0.021935571
21	0xbe9ea916	-0.30988377
22	0xbccaf8f1	-0.024776908
23	0xbdaa50ca	-0.083161905
24	0xbebfdd3a	-0.3747347
25	0x3e2ec9a8	0.17069113
26	0xbe9e46e2	-0.30913454
27	0x3d8ab916	0.067735836
28	0xbec432f6	-0.3832013
29	0x3da15a44	0.07878545
30	0x3e92541e	0.285798
31	0x3eb64bfc	0.35604846
32	0xbe33748a	-0.17524925
33	0x3e38a476	0.18031487
34	0x3d961cf4	0.07329741
35	0x3d95cc43	0.073143505
36	0x3e178e57	0.14800392
37	0x3e61b527	0.2204176
38	0x3e8de9d7	0.27717468
39	0xbd929905	-0.071580924
40	0xbe024bda	-0.12724248
41	0x3e1de7fc	0.15420526
42	0x3cc98f0c	0.024604343
43	0x3d89ba2f	0.06724965
44	0x3d01bf1a	0.03167639
45	0x3e8f2bc6	0.27963084
46	0xbe5a6a57	-0.21329628
47	0xbd28eb92	-0.041240282
48	0x3da1b372	0.078955546
49	0xbe5ad3d6	-0.21369871
50	0x3e216c0d	0.15763874
51	0xbd9d6dcd	-0.076869585
52	0x3e766168	0.24060595
53	0xbdb72553	-0.08942666
54	0xbd9ffe85	-0.078122176
55	0xbeb0aefa	-0.34508497
56	0x3dcafdd9	0.09911699
57	0x3e23b762	0.15987924
58	0xbd839e0d	-0.0642663
59	0xbee756c7	-0.45183393
60	0x3dcdd392	0.100501195
61	0x3df87a50	0.12132704
62	0x3e8de9b5	0.27717367
63	0x3d91fb08	0.071279585
64	0xbe37299e	-0.1788697
65	0x3d426c8f	0.04746681
66	0xbe8e1acf	-0.27754828
67	0xbddd0f76	-0.107939646
68	0x3da1e1ea	0.07904418
69	0x3dcfbd26	0.10143499
70	0x3dfb2ef2	0.122648135
71	0x3e65aeb6	0.22429928
72	0xbd1b4ba5	-0.037913937
73	0x3edf87e5	0.43658367
74	0x3ea318c3	0.3185483
75	0x3d9c3e9a	0.07629128
76	0x3e7974ed	0.2436101
77	0x3e1d2f0c	0.15349978
78	0xbd239859	-0.039940212
79	0xbe4bfb50	-0.19920087
80	0xbe816513	-0.25272426
81	0xbc8cd053	-0.01718918
82	0x3ef0cc1f	0.47030732
83	0x3e08302c	0.13299626
84	0xbe7e77e1	-0.24850418
85	0xbe791554	-0.24324542
86	0xbe075c5e	-0.13218829
87	0x3dadca00	0.08485794
88	0xbd161246	-0.03663852
89	0xbde009ca	-0.10939367
90	0x3e96f1b9	0.29481295
91	0x3e6bd553	0.23030595
92	0xbd7a4433	-0.061100196
93	0x3ddf765d	0.10911248
94	0xbe852667	-0.2600586
95	0x3e915907	0.28388235
96	0xbd9eeb07	-0.07759672
97	0xbf0d5918	-0.5521407
98	0xbee07e4d	-0.4384636
99	0x3d762202	0.060091026
100	0x3edee4d1	0.43533948
101	0xbdd30c61	-0.103050955
102	0xbf4938a0	-0.7860203
103	0xbf2bc345	-0.6709483
104	0xbc45af0a	-0.012065658
105	0x3d8f00a5	0.06982545
106	0xbee06339	-0.438257
107	0xbd32bc6b	-0.04363672
108	0xbdee529f	-0.116368525
109	0xbd95f0a4	-0.07321289
110	0x3d8af13c	0.06784293
111	0xbdc1a003	-0.09454348
112	0x3e62f705	0.22164543
113	0xbd4ad8b8	-0.049523085
114	0xbea1359f	-0.31486222
115	0x3e9e9db7	0.30979702
116	0xbdc5190a	-0.096239164
117	0xbba9116a	-0.0051595466
118	0xbdbcbc6c	-0.09215626
119	0x3de4d130	0.11172712
120	0xbd8db95a	-0.06920119
121	0xbe798e42	-0.24370673
122	0xbd5fcf05	-0.05464079
123	0xbda9abda	-0.08284731
124	0xbeacf372	-0.33779484
125	0xbdfdf45a	-0.12400122
126	0xbe197480	-0.14985847
127	0xbe374a65	-0.17899473
128	0x3e143bbd	0.14475913
129	0x3abc09a2	0.0014346133
130	0xbc8c08b2	-0.01709399
131	0x3e1d65e1	0.15370895
132	0x3e31135c	0.17292541
133	0x3e2b4d95	0.16728814
134	0x3ca4d82e	0.020122614
135	0x3e6b69b8	0.22989547
136	0xbd877e2b	-0.066158615
137	0x3eb38211	0.3506017
138	0x3db559fa	0.08855052
139	0xbe2878c6	-0.16452321
140	0x3d63889c	0.055550203
141	0x3ce140a8	0.02749665
142	0x3d9d7bec	0.07689652
143	0xbdc45cd9	-0.09588022
144	0xbeaea014	-0.34106505
145	0xbd22cd2c	-0.03974645
146	0xbd8a18f3	-0.0674304
147	0xbebaa68b	-0.36455187
148	0xbe93273a	-0.28740865
149	0x3e92e59f	0.28690812
150	0xbe0a9ed9	-0.13537158
151	0xbe494c48	-0.19658005
152	0x3e011bda	0.12608281
153	0xbe8740bd	-0.2641658
154	0xbe877304	-0.26454937
155	0xbc08ce01	-0.008349896
156	0xbeecf202	-0.46278387
157	0x3eb08eb9	0.3448389
158	0x3f217a46	0.630772
159	0xbe826e47	-0.2547476
160	0xbc170538	-0.009217553
161	0x3ddd0742	0.107924
162	0xbec171de	-0.37782186
163	0xbe8ecc16	-0.2789008
164	0x3ed7874f	0.4209542
165	0x3ee30594	0.44340193
166	0xbe1f6a6f	-0.15567945
167	0xbcb240ff	-0.021759508
168	0x3eef2fa7	0.46716043
169	0x3df0a59f	0.1175034
170	0xbe854d27	-0.26035425
171	0xbe002736	-0.12514958
172	0x3e0d4a18	0.13797796
173	0xbc42d5a8	-0.01189176
174	0xbe016c25	-0.1263891
175	0xbe8c42ac	-0.27394617
176	0xbde2a2f7	-0.11066239
177	0x3d22ef96	0.03977927
178	0xbe288680	-0.16457558
179	0xbdfe27d9	-0.12409944
180	0x3e1ec9db	0.15506689
181	0xbd069d62	-0.032864936
182	0xbd3c75ed	-0.0460109
183	0x3e03a83c	0.12857145
184	0x3e0537dc	0.1300959
185	0x3df4cefe	0.11953543
186	0xbe0a2786	-0.1349164
187	0x3e49256e	0.19643185
188	0xbe1ca476	-0.15297112
189	0x3bfe3298	0.007757496
190	0x3f133131	0.57496935
191	0x3ea81cd2	0.32834488
192	0xbea64d19	-0.32480696
193	0xbe36b11c	-0.17841
194	0x3def1cbb	0.11675402
195	0xbd7e2759	-0.062049244
196	0xbe064ef8	-0.13116062
197	0xbedf4670	-0.43608427
198	0x3e10b74f	0.14132427
199	0xbed726f2	-0.420219
200	0xbe72cc48	-0.2371074
201	0x3e5b381c	0.21408123
202	0xbeb86118	-0.36011577
203	0xbe071537	-0.13191687
204	0xbe4d4946	-0.20047483
205	0x3e80b67d	0.25139228
206	0xbdef9159	-0.11697645
207	0xbbe2b666	-0.0069187162
208	0xbec16db7	-0.37779018
209	0xbe0d4995	-0.137976
210	0xbe540ed7	-0.20708786
211	0xbe66470f	-0.22488044
212	0xbd82fbc5	-0.063956775
213	0x3e403e36	0.18773732
214	0x3edf5113	0.43616542
215	0xbe3012b8	-0.1719464
216	0xbde58766	-0.11207466
217	0x3e528175	0.20557196
218	0x3e7727e6	0.24136314
219	0x3e39952d	0.18123312
220	0xbe8eea6e	-0.2791323
221	0x3eab81b8	0.33497405
222	0xbd4d3c4c	-0.05010633
223	0xbe30f25a	-0.1727995
224	0x3dc7022c	0.09717211
225	0xbdf6d883	-0.12053015
226	0xbeb20bc7	-0.3477461
227	0xbea7970d	-0.3273243
228	0xbea825b5	-0.32841268
229	0xbd2d18a9	-0.042259846
230	0x3d39602b	0.04525773
231	0x3e22c30b	0.15894715
232	0x3e5fa0a0	0.21838617
233	0xbee0bbc2	-0.43893248
234	0xbdab213c	-0.08355948
235	0xbec51d8f	-0.38499114
236	0xbe517a4c	-0.20456809
237	0x3e3e5637	0.18587576
238	0x3eb4db84	0.35323727
239	0xbd7437f6	-0.05962368
240	0x3e5a11dd	0.21295877
241	0xbe7db156	-0.2477468
242	0xbda9b00b	-0.08285531
243	0x3e61ee00	0.22063446
244	0x3bcad9bb	0.0061905063
245	0xbcb7fd37	-0.02245961
246	0xbebf1175	-0.37318006
247	0x3e745f1a	0.23864403
248	0xbe1f24a9	-0.15541328
249	0xbcd88c66	-0.026434135
250	0xbe46771c	-0.19381374
251	0x3b038010	0.0020065345
252	0xbd711b68	-0.058864027
253	0xbc3923fc	-0.011300083
254	0x3da340fb	0.079713784
255	0x3d3e4df8	0.046461076

conv2.bias f4 [12]
0	0x3cfd1258	0.030892536
1	0x3bbc92ac	0.0057547893
2	0xbd89bd3d	-0.067255475
3	0x3c0c663b	0.0085692955
4	0x3e066e10	0.13127923
5	0x3dbebcd2	0.09313358
6	0xbd922827	-0.07136565
7	0xbd6c6b9c	-0.05771981
8	0xbce74646	-0.028231751
9	0xbd2d37b2	-0.042289443
10	0x3db1fb2e	0.08690487
11	0xbd7578f6	-0.05992981

bn2.weight f4 [12]
0	0x3fbd453f	1.4786757
1	0x3fc4f216	1.5386379
2	0x3fc007f5	1.5002428
3	0x3fb4be5d	1.4120594
4	0x3fad8d1d	1.3558689
5	0x3fcc9bd7	1.5985059
6	0x3f8e8171	1.1133252
7	0x3fa2e839	1.2727119
8	0x3f9fce80	1.2484894
9	0x3fbfc7a9	1.4982806
10	0x3f93d822	1.1550333
11	0x3fa6e3a6	1.3038223

bn2.bias f4 [12]
0	0xbf41fc91	-0.7577601
1	0xbf2f703d	-0.6853064
2	0xbf171c24	-0.59027314
3	0xbf32d268	-0.69852304
4	0xbf38df70	-0.7221594
5	0xbf42cefa	-0.7609707
6	0xbeeefa56	-0.46675366
7	0xbf243337	-0.6414065
8	0xbf034b09	-0.5128637
9	0xbf406634	-0.7515595
10	0xbedf61fa	-0.43629438
11	0xbf2b27fd	-0.6685789

bn2.running_mean f4 [12]
0	0x3ec70ed5	0.38878503
1	0xbf87372d	-1.0563713
2	0xbf51d6eb	-0.81968564
3	0xbf618c21	-0.88104445
4	0xbf0d0984	-0.55092645
5	0xc031e58a	-2.779635
6	0xbefaa639	-0.48954943
7	0xbef7b74a	-0.48382026
8	0xbe2bf2f2	-0.16791895
9	0x3e903561	0.28165725
10	0xbe951f30	-0.29125357
11	0xbf18f71e	-0.5975207

bn2.running_var f4 [12]
0	0x3f1d2f01	0.6139985
1	0x3f9dc0f8	1.2324514
2	0x3fb1dacb	1.3894895
3	0x3f1bb3b6	0.6082109
4	0x3f4c83b7	0.7988848
5	0x3f4b4aac	0.79410815
6	0x3f4a127d	0.7893446
7	0x3f3ef9e6	0.74600065
8	0x3f0c47ba	0.54796946
9	0x3f657ece	0.89646614
10	0x3f37953c	0.7171209
11	0x3f2e1389	0.6799856

fc3.weight f4 [128, 588]
0	0x3d878c0d	0.066185094
1	0xbc9fd45e	-0.019510444
2	0x3d3dedf0	0.046369493
3	0xbd59324b	-0.05302648
4	0x3bde2fbc	0.0067805927
5	0xbd96b253	-0.073582314
6	0x3d0980fb	0.03357027
7	0xbd1b03eb	-0.037845533
8	0x3c9fc5d6	0.019503515
9	0xbdc3d6a9	-0.095624276
10	0xbca06bfc	-0.019582741
11	0xbd048952	-0.03235752
12	0xbcc6f87c	-0.024288408
13	0xbd97080f	-0.07374584
14	0xbd932f35	-0.071867384
15	0xbda8b58c	-0.08237752
16	0xbe0006c4	-0.12502581
17	0x3dcadf99	0.09905929
18	0xbe05fea4	-0.13085419
19	0xbca9bfa1	-0.020721259
20	0x3bc8e031	0.0061302413
21	0xbe092b4c	-0.13395423
22	0xbc614cd7	-0.01375123
23	0xbdcca1d3	-0.09991803
24	0xbdbad12e	-0.09121929
25	0xbc4894e5	-0.0122425305
26	0xbd6fae66	-0.05851593
27	0xbcd83c93	-0.026396072
28	0xbe19caf1	-0.15018822
29	0xbe444010	-0.19165063
30	0xbe07e2a3	-0.13270049
31	0xbd724b45	-0.059153814
32	0x3bcd1729	0.0062588644
33	0xbc97e36f	-0.018541066
34	0xbd8fc475	-0.07019893
35	0xbd5a2f37	-0.053267684
36	0xbe003a06	-0.12522134
37	0xbd1fddb0	-0.039029777
38	0xbcab8cc6	-0.02094115
39	0xbde15838	-0.110031545
40	0x3d573813	0.05254371
41	0xbd829a8f	-0.06377136
42	0x3dd09bff	0.10186004
43	0xbc5b9326	-0.013401782
44	0xbdb4dc76	-0.08831112
45	0xbddf59fc	-0.10905835
46	0x3c92f560	0.01793927
47	0xbc0fff32	-0.008788871
48	0x3da06b15	0.07832924
49	0xbcbddd26	-0.02317674
50	0x3da77d6c	0.08178219
51	0xbd745729	-0.059653435
52	0xbd816880	-0.0631876
53	0x3e11896e	0.14212582
54	0x3b65aa53	0.0035044148
55	0x3999159f	0.00029198543
56	0xbcab103c	-0.020881765
57	0xbd2524ea	-0.040318407
58	0x3badb3dd	0.0053009824
59	0xbdb3768a	-0.08762844
60	0x3d118bdd	0.035533775
61	0xbcdc88b6	-0.026920658
62	0xbc2ed2be	-0.010670362
63	0xbd90bca8	-0.07067233
64	0xbe0fa413	-0.14027433
65	0xbd9bd0f4	-0.07608214
66	0xbe307ab8	-0.17234313
67	0xbd49d1b5	-0.049272258
68	0xbd951ca8	-0.07280856
69	0xbd9beae7	-0.076131634
70	0xbb62d52f	-0.003461193
71	0xbe0e15a8	-0.13875449
72	0xbcb38190	-0.021912366
73	0x3dda0a83	0.10646536
74	0xbcd923e7	-0.026506377
75	0xbcc118c8	-0.023571387
76	0xbd1d430e	-0.038394026
77	0x3d4a4241	0.04937959
78	0xbc001481	-0.0078173885
79	0xbdc2ffc8	-0.09521443
80	0xbcfce3f5	-0.030870417
81	0x3d5eae44	0.05436541
82	0x3c43a4cc	0.011941146
83	0x3e0e018c	0.13867778
84	0x3d08735a	0.033313133
85	0xbdade150	-0.084902406
86	0xbdaf4cf3	-0.08559599
87	0x3d07f07c	0.03318833
88	0x3baf4007	0.005348209
89	0x3d943095	0.07235829
90	0x3d28331f	0.041064378
91	0x3d563788	0.052299052
92	0x3c843faf	0.016143648
93	0x3cad0b37	0.021123512
94	0x3cc412cb	0.023934742
95	0xbd290036	-0.041259967
96	0xbd2a9298	-0.04164371
97	0x3d36ada9	0.04459921
98	0xbd016e05	-0.031599063
99	0x3d10852b	0.03528325
100	0x3dae7db3	0.08520069
101	0xbdcaa35f	-0.09894442
102	0xbd5f9e61	-0.0545944
103	0xbcfd72fe	-0.030938622
104	0x3c9b4082	0.018951658
105	0xbd0c6471	-0.034275476
106	0xbcd1b7a9	-0.025600271
107	0x3dca90fe	0.09890936
108	0x3c3cdafb	0.011526818
109	0x3d9356db	0.07194301
110	0xbca7ca65	-0.020482251
111	0x3c4edb67	0.012625552
112	0x3d2234bd	0.039601076
113	0xbb7691b9	-0.0037623479
114	0x3e2144ae	0.15748855
115	0xbc2eaf92	-0.010661976
116	0x3dede185	0.1161528
117	0xbd3c2896	-0.045937143
118	0x3c844d6c	0.016150199
119	0xbdb3a08a	-0.08770855
120	0xbd7b5f58	-0.061370224
121	0x3c4c790e	0.012480034
122	0x3d94a9c1	0.072589405
123	0x3da2ed14	0.07955375
124	0x3cb16941	0.021656634
125	0x3cc7480b	0.024326345
126	0xbcc80d28	-0.024420336
127	0xbc8dadd9	-0.017294811
128	0xbccacee5	-0.024756858
129	0x3c3ef620	0.01165536
130	0x3ca5db9a	0.020246316
131	0x3d902c8b	0.07039746
132	0x3dc08181	0.09399701
133	0xbc3d3236	-0.011547616
134	0x3d0ef4cc	0.034901425
135	0xbb60d0b5	-0.0034304087
136	0xbba57acd	-0.0050500394
137	0x3d4572ee	0.04820531
138	0xbcf178c2	-0.029476527
139	0xbc5c4a73	-0.013445484
140	0x3d9f188a	0.07768352
141	0x3e1f0b0c	0.15531558
142	0xbd94f574	-0.07273379
143	0x3c0cba6e	0.00858937
144	0x39a66619	0.00031738056
145	0xbd8cfcc8	-0.06884152
146	0x3bed007a	0.007232723
147	0x3ccfa454	0.025346912
148	0x3c2635fa	0.010144705
149	0xbe02113e	-0.1270189
150	0xbdc7505b	-0.097321235
151	0xbcc79ca2	-0.02436668
152	0xbca31e75	-0.019911984
153	0xbd7f0e86	-0.06226971
154	0x3d53ea96	0.05173739
155	0xbdb66eed	-0.08907876
156	0x3d257ffa	0.04040525
157	0xbd1ac5b5	-0.037786204
158	0xbcc15d6b	-0.023604115
159	0xbb25db32	-0.0025307653
160	0xbd040b2d	-0.03223722
161	0x3db09987	0.08623033
162	0xbdc1f840	-0.09471178
163	0xbe528b84	-0.20561033
164	0xbd515a40	-0.05111146
165	0xbd46e003	-0.048553478
166	0x3db38e99	0.08767433
167	0xbcad9dd2	-0.021193419
168	0xbd49a341	-0.049227957
169	0xbe3cb0c5	-0.18426807
170	0xbdf0ed99	-0.11764068
171	0x3cdc4bad	0.026891554
172	0x3cc91dfd	0.024550432
173	0xbb294241	-0.0025826844
174	0xbdc12a40	-0.09431887
175	0x3d84498b	0.0645934
176	0x3dd16f39	0.10226292
177	0xbd976c68	-0.07393724
178	0x3d6a9af0	0.057276666
179	0x3c9067d6	0.017627638
180	0xbbe75f28	-0.007060904
181	0xbd0fe0fd	-0.035126675
182	0xbcfde3b3	-0.030992365
183	0x3db6822f	0.08911549
184	0x3df40810	0.119156
185	0x3cc7cab1	0.024388643
186	0x3c9d2b75	0.019185761
187	0xbc6fac46	-0.0146284755
188	0xbb8180f3	-0.0039521395
189	0x3d2bc571	0.04193634
190	0x3d174a4e	0.036936097
191	0x3dacac8e	0.0843135
192	0xbb6c3f39	-0.0036048426
193	0xbd86408f	-0.06555282
194	0xbd069d14	-0.032864645
195	0x3c6fe45f	0.01464185
196	0xbb20c4e6	-0.0024531423
197	0xbc0acb46	-0.008471316
198	0x3c1a2d03	0.009410146
199	0x3d1342ae	0.035952263
200	0xbe1071e9	-0.14105953
201	0xbd817691	-0.06321443
202	0x3b4ce180	0.0031262338
203	0xbcafa947	-0.021443022
204	0x3d11bec5	0.035582323
205	0xbdf8cde9	-0.12148649
206	0x3da96d43	0.08272793
207	0xbd581a6e	-0.05275958
208	0x3c8834b8	0.0166267
209	0xbdbe503c	-0.09292647
210	0xbdbed36a	-0.09317668
211	0xbc6262dc	-0.013817515
212	0xbdc10e09	-0.09426505
213	0xbc571a9a	-0.013128901
214	0xbde32791	-0.11091531
215	0x3d381549	0.044942174
216	0xbcec5cfe	-0.028852936
217	0xbdeb3d6a	-0.11486323
218	0xbc8f0d65	-0.017462442
219	0xbdf3c1be	-0.11902188
220	0xbdf9e4c0	-0.12201834
221	0x3ce25ab3	0.02763114
222	0x3ce84132	0.0283514
223	0x3b236b4b	0.0024935778
224	0xbda48cef	-0.080346934
225	0x3d26102b	0.040542763
226	0xbd8b021c	-0.06787512
227	0xbdc93f59	-0.09826536
228	0xbc7ccf31	-0.015430258
229	0xbd0d1745	-0.03444602
230	0x3d2b6479	0.041843865
231	0x3d835462	0.06412579
232	0x3e1e683b	0.15469448
233	0x3b8ff38a	0.004393046
234	0x3d016ba5	0.0315968
235	0x3d02d5e5	0.031942267
236	0xbbb098df	-0.0053893174
237	0xbd0872f7	-0.033312764
238	0x3d45ab58	0.04825911
239	0xbd0dda6e	-0.03463214
240	0xbd4c6cb3	-0.04990835
241	0xbdd0bd30	-0.10192335
242	0x3d294b5c	0.041331634
243	0xbd817ea9	-0.06322987
244	0x3d499b66	0.049220465
245	0x3c04dc35	0.008109142
246	0xbd18d277	-0.03731009
247	0x3cd10078	0.025512919
248	0x3c990689	0.018679874
249	0xbc8bcbba	-0.017064918
250	0x3bb868a0	0.0056277066
251	0x3d4b48cb	0.049629968
252	0xbc1068d5	-0.008814056
253	0xbc11e450	-0.008904532
254	0x3d885e68	0.066586316
255	0xbdf7ea58	-0.121052444

fc3.bias f4 [128]
0	0x3d3c81a0	0.046022058
1	0xbc375497	-0.011189601
2	0x39c59aac	0.00037690008
3	0xbcb7dab4	-0.022443153
4	0x3c0ec568	0.0087140575
5	0x3d7feb96	0.06248053
6	0xbc1fd508	-0.00975538
7	0x3c95954e	0.01825967
8	0x3cf00900	0.029301167
9	0x3b54f720	0.003249593
10	0x3c90f948	0.017696992
11	0xbc91869a	-0.017764378
12	0x3d09d458	0.033649772
13	0x3d1dcfe3	0.038528334
14	0xbba90ade	-0.005158766
15	0xbd450d7a	-0.048108555
16	0xbd302293	-0.043001723
17	0x3d7df8b8	0.062004775
18	0xbc8dd2e4	-0.017312475
19	0x3bd7178c	0.0065640863
20	0x3d0197c2	0.03163887
21	0x3cb3396a	0.021877963
22	0x3c2ac025	0.010421787
23	0x3d0d9b68	0.034572035
24	0x3cdf2f0a	0.02724411
25	0xbd2e23ab	-0.042514484
26	0x3c0bb6d8	0.00852748
27	0x3b6d3919	0.0036197363
28	0x3c1b0fef	0.009464248
29	0xbb896cce	-0.0041938787
30	0x3bc93d75	0.0061413595
31	0xbadf146f	-0.001701964
32	0x3d2d161c	0.042257413
33	0xbc270cfe	-0.010195969
34	0x3bdb4bc8	0.0066923834
35	0x3d3cb064	0.046066657
36	0xbb263efb	-0.002536713
37	0x3d57f797	0.052726354
38	0x3d442bc4	0.0478933
39	0x3c436bf4	0.0119275935
40	0xbd5b476c	-0.05353491
41	0x3d0e5820	0.03475201
42	0xbccf2694	-0.02528695
43	0xbc056125	-0.008140837
44	0x3ce2ea22	0.027699534
45	0x3cfbe479	0.030748593
46	0xbba0cab5	-0.004906977
47	0xbb80536b	-0.003916194
48	0x3ca5a190	0.02021864
49	0x3cdc12c7	0.026864422
50	0xbc541be7	-0.012946106
51	0xbc1120b5	-0.008857896
52	0x3acfe83f	0.0015862061
53	0xbcbe4a8d	-0.023228908
54	0x3b80ee69	0.0039346707
55	0x3b82bc37	0.003989722
56	0x3b24e934	0.0025163414
57	0x3cb5a9f9	0.022175776
58	0x3d702c40	0.05863595
59	0xbc96e168	-0.018418029
60	0xbd18f82f	-0.03734606
61	0xbb985a42	-0.0046494314
62	0x3c4d05bb	0.012513573
63	0x3c1ec71c	0.009691026
64	0xbd1941cd	-0.03741627
65	0x3cdfe406	0.02733041
66	0xbcd8c9af	-0.026463358
67	0x3d094ca4	0.033520356
68	0x3d22864f	0.039678868
69	0xbb11b009	-0.002223017
70	0xbbd2b608	-0.006430391
71	0xbd2b06b1	-0.04175443
72	0x3cce402b	0.025177082
73	0x3d042ab8	0.032267302
74	0x3cdb6135	0.02677975
75	0x3c0a6a7a	0.008448238
76	0xbc11cd3f	-0.008899032
77	0xbc432454	-0.011910517
78	0xbc145010	-0.0090522915
79	0xbc8b0d2c	-0.016974054
80	0xbb07b272	-0.0020705727
81	0x3cab6643	0.020922786
82	0x3bc21d55	0.005923907
83	0x3d605d78	0.05477664
84	0xbce7625b	-0.028245142
85	0xbbc5cefd	-0.006036638
86	0x3d59152e	0.052998714
87	0xbd109143	-0.035294782
88	0xbd5f7e93	-0.05456407
89	0x3d8c942d	0.068642
90	0x3cfab454	0.030603565
91	0xbc44e5cf	-0.012017681
92	0x3d29f7af	0.041495975
93	0x3d152d87	0.03642037
94	0x3d5a0d0b	0.053235095
95	0x3abca2c5	0.0014391771
96	0x3c74005f	0.014892667
97	0x3d30ece5	0.04319467
98	0xbd43e452	-0.047825165
99	0x3d1c80a1	0.038208608
100	0x3d29badf	0.04143798
101	0x3d382ba8	0.04496351
102	0x3c038de1	0.008029432
103	0x3d37cbe9	0.0448722
104	0xbc27aac2	-0.010233583
105	0xbc9abac4	-0.018887885
106	0x3c47b2b5	0.012188603
107	0xbbadb403	-0.005301
108	0x3c24df33	0.01006298
109	0x3c832ec6	0.016013514
110	0x3b2844f3	0.0025675863
111	0xbd3153c2	-0.04329277
112	0xbd1ee0e8	-0.038788706
113	0x3d2e7a3a	0.042597033
114	0xbc76aa65	-0.015055274
115	0x3d42cb05	0.047556896
116	0xbc07681c	-0.008264568
117	0x3d0ea1c2	0.034822233
118	0xbc35a4b2	-0.01108663
119	0x3cd99726	0.026561331
120	0x3d15acd9	0.036541793
121	0xbc69604e	-0.014244152
122	0x3b0647ad	0.00204895
123	0x3c575738	0.013143353
124	0x3bfd214b	0.007724916
125	0x3c03d6b4	0.008046795
126	0xbc8ef79f	-0.01745206
127	0xbc52566a	-0.0128379855

fc4.weight f4 [10, 128]
0	0xbe2d3da4	-0.16918045
1	0xbec52032	-0.38501126
2	0xbd8a6b7c	-0.06758782
3	0x3e400856	0.1875318
4	0xbd385213	-0.045000147
5	0xbd8ba73f	-0.06819009
6	0x3e51b836	0.20480427
7	0x3cadb1c9	0.021202939
8	0xbe7793ff	-0.2417755
9	0xbdea674a	-0.11445482
10	0x3e98fd3e	0.29880708
11	0xbd30b9fc	-0.04314612
12	0x3df04a4e	0.117329225
13	0xbe59047e	-0.2119312
14	0xbe6d995c	-0.23203033
15	0xbe3c165b	-0.18367903
16	0x3e11b97a	0.1423091
17	0xbe421581	-0.18953516
18	0xbe8f9849	-0.28045872
19	0xbccd324f	-0.025048403
20	0xbe15f184	-0.14642912
21	0xbdb825cd	-0.08991585
22	0xbbd04407	-0.0063557657
23	0xbe1fb2a6	-0.15595493
24	0x3d1b5e14	0.037931517
25	0xbec37ae8	-0.38179708
26	0xbe35a472	-0.17738512
27	0x3d435ddb	0.04769693
28	0x3e698fbc	0.22808737
29	0x3e22a729	0.15884079
30	0x3e9cc6c0	0.30620384
31	0xbdaa2863	-0.083084844
32	0x3e6dc643	0.23220162
33	0x3db002c5	0.08594278
34	0xbe5aa5d4	-0.21352321
35	0x3e90070c	0.28130376
36	0x3e092342	0.13392356
37	0xbe99676e	-0.29961723
38	0x3e7152c5	0.2356673
39	0xbd3c3505	-0.045949
40	0x3edb25bb	0.42802224
41	0x3e8e8e13	0.2784277
42	0x3e9bd981	0.3043938
43	0x3ddcf297	0.10788458
44	0xbd86f202	-0.06589128
45	0x3f026771	0.5093909
46	0xbe010463	-0.1259933
47	0xbebd53c5	-0.36977974
48	0xbb701da9	-0.0036638773
49	0x3e1ee3b5	0.15516551
50	0x3e965156	0.2935893
51	0xbd07cd23	-0.033154618
52	0x3db697c8	0.08915669
53	0x3e261b83	0.16221432
54	0x3e808b33	0.251062
55	0xbd48d2e1	-0.049029235
56	0x3eb32ed9	0.3499668
57	0x3e80d5c6	0.25163096
58	0xbd734a32	-0.05939693
59	0xbe66fd1a	-0.22557488
60	0x3e9a7377	0.30166218
61	0xbd0d6c4a	-0.0345271
62	0x3e0796da	0.13241139
63	0xbc9aef20	-0.018912852
64	0xbe01dabe	-0.126811
65	0x3ebf730d	0.37392464
66	0x3e481e5d	0.19542833
67	0x3c391331	0.0112960795
68	0xbe32041b	-0.17384379
69	0x3e8b7751	0.2723947
70	0xbeb2bb16	-0.3490836
71	0x3cf56145	0.029953608
72	0xbbc21236	-0.005922581
73	0x3e8f1056	0.2794215
74	0x3ec32929	0.3811734
75	0xbe0381e0	-0.12842512
76	0xbec872ab	-0.39149985
77	0xbe95bf63	-0.2924758
78	0xbe986889	-0.29767254
79	0xbcc28fac	-0.023750149
80	0x3d6b1fad	0.057403255
81	0x3e37b162	0.1793876
82	0x3bff58df	0.0077925767
83	0x3dd9c5bd	0.10633419
84	0xbec0743d	-0.37588683
85	0x3d80460b	0.0626336
86	0x3dc3d5e5	0.095622815
87	0x3d771d65	0.060330767
88	0xbd2ea0c2	-0.04263378
89	0xbe57f646	-0.2109004
90	0xbdbb41c0	-0.091434
91	0x3d9aeef5	0.07565109
92	0x3da374fe	0.07981299
93	0x3ec12cc3	0.37729463
94	0x3e167338	0.1469239
95	0xbdd961eb	-0.106143795
96	0x3e0c4200	0.13697052
97	0x3e7f7662	0.24947503
98	0xbdc16c5a	-0.094444945
99	0x3eddb2fc	0.43300617
100	0xbeb34359	-0.3501232
101	0x3dffea93	0.12495913
102	0x3c8d62e0	0.017259061
103	0xbd369d1c	-0.044583425
104	0x3e6e7b08	0.2328912
105	0x3e4b6b8b	0.19865243
106	0xbe2f8598	-0.17140806
107	0x3d3d32ea	0.046191134
108	0xbdb5b0a0	-0.08871579
109	0xbe6a262e	-0.22866127
110	0x3d9d55ef	0.07682406
111	0x3e9da11a	0.30786973
112	0x3b36d56c	0.0027898205
113	0x3e40193f	0.1875963
114	0xbe11795a	-0.14206448
115	0xbe77f2c7	-0.24213706
116	0x3d6b1ab8	0.057398528
117	0x3e1a3033	0.15057449
118	0x3d428de5	0.047498602
119	0x3e199c18	0.15000951
120	0x3ea27463	0.3172942
121	0x3ea1e01d	0.31616297
122	0x3d02a173	0.03189225
123	0x3dada38c	0.0847846
124	0x3d799e65	0.060942072
125	0x3dbd2ced	0.092370845
126	0xbba47d06	-0.005019787
127	0x3c2affc9	0.0104369605
128	0xbdf5304c	-0.119721025
129	0xbd473501	-0.048634533
130	0x3d5e924e	0.054338746
131	0xbc24b539	-0.0100529725
132	0x3ebb8ed7	0.36632416
133	0x3d57bc24	0.05266966
134	0xbe4b65b9	-0.19863023
135	0xbe4b485b	-0.1985182
136	0x3bf9b761	0.0076207374
137	0x3d875c98	0.06609458
138	0xbe14e191	-0.14539172
139	0x3d00ae33	0.03141613
140	0xbd70901d	-0.058731187
141	0x3e3dc542	0.18532279
142	0xbe3d7226	-0.18500575
143	0xbe1a2c53	-0.15055971
144	0x3d3b1256	0.045671783
145	0xbeaf1865	-0.341983
146	0xbe6c8db9	-0.23100938
147	0xbe04c111	-0.12964274
148	0x3dbed20c	0.09317407
149	0x3db1e34e	0.08685933
150	0x3f20c756	0.6280416
151	0x3e87d1a2	0.26527125
152	0xbde4c3f4	-0.111701876
153	0x3d9d4196	0.07678525
154	0x3e0e9941	0.13925649
155	0x3f139576	0.57649934
156	0xbdf9d861	-0.12199474
157	0x3eb69dcf	0.35667273
158	0x3dec2b29	0.1153167
159	0xbcf68994	-0.0300949
160	0xbe42fcea	-0.19041792
161	0xbd82795a	-0.06370802
162	0xbd3dc108	-0.046326667
163	0x3e261c46	0.16221723
164	0x3d1d398a	0.03838495
165	0x3e8f7531	0.28019097
166	0x3e9ad43a	0.3024004
167	0xbe4cb6b4	-0.1999157
168	0xbec3175f	-0.38103768
169	0xbea8f1e3	-0.32997045
170	0xbe822add	-0.25423327
171	0x3c6f08bf	0.014589488
172	0xbdd0a33f	-0.10187387
173	0xbe01304b	-0.12616079
174	0xbe44aa2d	-0.19205542
175	0xbe048434	-0.12941056
176	0x3d5b0c3d	0.05347847
177	0xbdc45a72	-0.095875636
178	0xbe7b1e62	-0.24523309
179	0xbc83fab4	-0.016110756
180	0x3ce401a8	0.027832821
181	0xbe91fbc3	-0.2851239
182	0xbe54a889	-0.20767416
183	0xbd8ef8ec	-0.06981072
184	0xbd1591e9	-0.036516104
185	0xbd1d39b2	-0.0383851
186	0xbed1013d	-0.40821257
187	0x3e2380b6	0.15967068
188	0xbe5cfe09	-0.21581282
189	0xbc7904db	-0.015198912
190	0x3e87c72a	0.26519138
191	0xbd46f7a4	-0.048576012
192	0x3cd2a3a9	0.025712805
193	0xbd6efdf3	-0.058347654
194	0xbe628ad3	-0.2212327
195	0xbdadc3be	-0.084846005
196	0x3ec10491	0.37698796
197	0xbebe6f3d	-0.37194243
198	0xbe4183d2	-0.18897942
199	0x3da050ff	0.07827949
200	0xbdb5e5fe	-0.08881758
201	0xbde87396	-0.11350171
202	0xbe0130b1	-0.1261623
203	0xbe755d6d	-0.2396142
204	0x3e1c1f5e	0.1524634
205	0x3e4156ab	0.18880717
206	0x3e5e667d	0.21718784
207	0xbd8daeab	-0.06918081
208	0xbded32ce	-0.11581956
209	0xbd97b856	-0.07408206
210	0x3e92b080	0.28650284
211	0x3e97c293	0.29640636
212	0xbe97e83f	-0.29669377
213	0xbe13d28f	-0.1443579
214	0x3d75828c	0.059938952
215	0x3e0f9e0c	0.14025134
216	0xbeca0281	-0.39455035
217	0x3e292134	0.16516572
218	0x3f2cdac7	0.6752133
219	0x3eaa789e	0.3329515
220	0xbea038c7	-0.31293318
221	0x3e136854	0.14395267
222	0xbe54468d	-0.20730038
223	0x3d788a64	0.060678855
224	0xbd8cf83a	-0.06883283
225	0x3d8e00bf	0.06933736
226	0x3c6bda9a	0.01439538
227	0xbe45c052	-0.19311646
228	0xbd746fdf	-0.059677
229	0xbc9efa57	-0.01940648
230	0xbc6674bb	-0.014065917
231	0x3e188008	0.1489259
232	0x3c983b90	0.01858309
233	0x3bb456a1	0.005503491
234	0x3e498c6b	0.19682471
235	0xbd815734	-0.06315461
236	0xbd8ef86f	-0.06980979
237	0x3e88da67	0.26729128
238	0x3e12d2b5	0.14338191
239	0xbf1ae317	-0.6050276
240	0x3c85576a	0.016277034
241	0x3d2995e7	0.041402724
242	0xbdd57284	-0.10422233
243	0x3e20c04d	0.15698357
244	0xbc69c861	-0.014268965
245	0xbe145161	-0.14484169
246	0xbcff442a	-0.031160433
247	0x3d38746c	0.045032904
248	0x3e37efd4	0.17962581
249	0xbdbf9363	-0.09354284
250	0x3cca3cf2	0.024687264
251	0x3e15176a	0.14559713
252	0x3dc39b18	0.09551066
253	0xbbffcf60	-0.0078067034
254	0xbc1859e3	-0.009298774
255	0xbd95ac29	-0.073082276

fc4.bias f4 [10]
0	0xbd898b99	-0.06716079
1	0xbe1a01bc	-0.15039724
2	0xbdcc28b4	-0.09968701
3	0x3bf46706	0.0074585704
4	0x3dbf37db	0.093368255
5	0xba5a7d9b	-0.0008334757
6	0x3df705d3	0.12061658
7	0x3d0c7a57	0.03429636
8	0x3d7d25c7	0.061803605
9	0xbd642c12	-0.05570609
